…
The sparsity of the dataset: 99.99389670773579%
Thu 21 Aug 2025 10:55:05 INFO 
====Testing====
clothing
The number of users: 39387
Average actions of users: 1.0457511361616778
The number of items: 16803
Average actions of items: 2.451288460393977
The number of inters: 41189
The sparsity of the dataset: 99.99377640221293%
Thu 21 Aug 2025 10:55:18 INFO 

=================================


Thu 21 Aug 2025 10:55:18 INFO =========1/1: Parameters:['align_loss', 'inter_loss', 'exp_loss', 'cal_loss', 're_loss', 'vt_loss', 'seed']=(0.01, 0.001, 0.01, 0.0001, 0.002, 0.01, 999)=======
Thu 21 Aug 2025 10:56:33 INFO DAGVID(
  (user_embedding): Embedding(39387, 64)
  (item_id_embedding): Embedding(23033, 64)
  (augmented_image_user): Embedding(39387, 64)
  (augmented_text_user): Embedding(39387, 64)
  (image_embedding): Embedding(23033, 4096)
  (image_mu_encoder): Linear(in_features=4096, out_features=64, bias=True)
  (image_logvar_encoder): Linear(in_features=4096, out_features=64, bias=True)
  (text_embedding): Embedding(23033, 384)
  (text_mu_encoder): Linear(in_features=384, out_features=64, bias=True)
  (text_logvar_encoder): Linear(in_features=384, out_features=64, bias=True)
  (softmax): Softmax(dim=-1)
  (gate_v): Sequential(
    (0): Linear(in_features=64, out_features=64, bias=True)
    (1): Sigmoid()
  )
  (gate_t): Sequential(
    (0): Linear(in_features=64, out_features=64, bias=True)
    (1): Sigmoid()
  )
  (attention): Sequential(
    (0): Linear(in_features=64, out_features=64, bias=True)
    (1): Tanh()
    (2): Linear(in_features=64, out_features=1, bias=False)
  )
)
Trainable parameters: 112810496
Thu 21 Aug 2025 10:56:44 INFO epoch 0 training [time: 10.28s, train loss: 100.4521]
Thu 21 Aug 2025 10:56:56 INFO epoch 0 evaluating [time: 6.53s, valid_score: 0.073400]
Thu 21 Aug 2025 10:56:56 INFO valid result: 
recall@5: 0.0342    recall@10: 0.0518    recall@20: 0.0734    recall@50: 0.1038    ndcg@5: 0.0227    ndcg@10: 0.0284    ndcg@20: 0.0339    ndcg@50: 0.0399    precision@5: 0.0069    precision@10: 0.0053    precision@20: 0.0037    precision@50: 0.0021    map@5: 0.0189    map@10: 0.0212    map@20: 0.0227    map@50: 0.0237    
…
