…
The number of inters: 20559
The sparsity of the dataset: 99.98071694707788%
28 Jul 21:52    INFO 
====Testing====
baby
The number of users: 19445
Average actions of users: 1.1150424273592183
The number of items: 5549
Average actions of items: 3.907370697422959
The number of inters: 21682
The sparsity of the dataset: 99.97990552482683%
28 Jul 21:52    INFO 

=================================


28 Jul 21:52    INFO =========1/1: Parameters:['cl_loss', 'cl_loss2', 'cl_loss3', 'uni_loss', 'vib_alpha', 'mi_loss', 'seed']=(0.001, 0.01, 0.002, 0.1, 0.08, 0.01, 999)=======
28 Jul 21:53    INFO DAGVID(
  (user_embedding): Embedding(19445, 64)
  (item_id_embedding): Embedding(7050, 64)
  (augmented_image_user): Embedding(19445, 64)
  (augmented_text_user): Embedding(19445, 64)
  (image_embedding): Embedding(7050, 4096)
  (image_mu_encoder): Linear(in_features=4096, out_features=64, bias=True)
  (image_logvar_encoder): Linear(in_features=4096, out_features=64, bias=True)
  (text_embedding): Embedding(7050, 384)
  (text_mu_encoder): Linear(in_features=384, out_features=64, bias=True)
  (text_logvar_encoder): Linear(in_features=384, out_features=64, bias=True)
  (softmax): Softmax(dim=-1)
  (gate_v): Sequential(
    (0): Linear(in_features=64, out_features=64, bias=True)
    (1): Sigmoid()
  )
  (gate_t): Sequential(
    (0): Linear(in_features=64, out_features=64, bias=True)
    (1): Sigmoid()
  )
  (attention): Sequential(
    (0): Linear(in_features=64, out_features=64, bias=True)
    (1): Tanh()
    (2): Linear(in_features=64, out_features=1, bias=False)
  )
)
Trainable parameters: 36354880
28 Jul 21:53    INFO epoch 0 training [time: 2.33s, train loss: 254.9891]
28 Jul 21:53    INFO epoch 0 evaluating [time: 3.09s, valid_score: 0.066200]
28 Jul 21:53    INFO valid result: 
recall@5: 0.0302    recall@10: 0.0445    recall@20: 0.0662    recall@50: 0.1042    ndcg@5: 0.0209    ndcg@10: 0.0255    ndcg@20: 0.0310    ndcg@50: 0.0387    precision@5: 0.0063    precision@10: 0.0046    precision@20: 0.0035    precision@50: 0.0022    map@5: 0.0176    map@10: 0.0195    map@20: 0.0210    map@50: 0.0222    
…
