…
The sparsity of the dataset: 99.99202039826986%
Wed 30 Jul 2025 15:12:56 INFO 
====Testing====
sports
The number of users: 35598
Average actions of users: 1.1244732850160122
The number of items: 13738
Average actions of items: 2.9137429028970736
The number of inters: 40029
The sparsity of the dataset: 99.99181486908563%
Wed 30 Jul 2025 15:13:07 INFO 

=================================


Wed 30 Jul 2025 15:13:07 INFO =========1/1: Parameters:['cl_loss', 'cl_loss2', 'cl_loss3', 'uni_loss', 'vib_alpha', 'mi_loss', 'seed']=(0.01, 0.01, 0.04, 0.1, 0.001, 0.0001, 999)=======
Wed 30 Jul 2025 15:15:17 INFO DAGVID(
  (user_embedding): Embedding(35598, 64)
  (item_id_embedding): Embedding(18357, 64)
  (augmented_image_user): Embedding(35598, 64)
  (augmented_text_user): Embedding(35598, 64)
  (image_embedding): Embedding(18357, 4096)
  (image_mu_encoder): Linear(in_features=4096, out_features=64, bias=True)
  (image_logvar_encoder): Linear(in_features=4096, out_features=64, bias=True)
  (text_embedding): Embedding(18357, 384)
  (text_mu_encoder): Linear(in_features=384, out_features=64, bias=True)
  (text_logvar_encoder): Linear(in_features=384, out_features=64, bias=True)
  (softmax): Softmax(dim=-1)
  (gate_v): Sequential(
    (0): Linear(in_features=64, out_features=64, bias=True)
    (1): Sigmoid()
  )
  (gate_t): Sequential(
    (0): Linear(in_features=64, out_features=64, bias=True)
    (1): Sigmoid()
  )
  (attention): Sequential(
    (0): Linear(in_features=64, out_features=64, bias=True)
    (1): Tanh()
    (2): Linear(in_features=64, out_features=1, bias=False)
  )
)
Trainable parameters: 90835264
Wed 30 Jul 2025 15:15:25 INFO epoch 0 training [time: 8.38s, train loss: 128.2201]
Wed 30 Jul 2025 15:15:39 INFO epoch 0 evaluating [time: 6.93s, valid_score: 0.090900]
Wed 30 Jul 2025 15:15:39 INFO valid result: 
recall@5: 0.0403    recall@10: 0.0624    recall@20: 0.0909    recall@50: 0.1389    ndcg@5: 0.0272    ndcg@10: 0.0344    ndcg@20: 0.0417    ndcg@50: 0.0513    precision@5: 0.0085    precision@10: 0.0066    precision@20: 0.0048    precision@50: 0.0030    map@5: 0.0226    map@10: 0.0255    map@20: 0.0275    map@50: 0.0290    
…
